…
backbone.ln1.weight - Initialized by user-defined `init_weights` in Deit  
backbone.ln1.bias - Initialized by user-defined `init_weights` in Deit  
decode_head.conv_seg.weight - NormalInit: mean=0, std=0.01, bias=0 
decode_head.conv_seg.bias - NormalInit: mean=0, std=0.01, bias=0 
decode_head.head.weight - The value is the same before and after calling `init_weights` of EncoderDecoder  
decode_head.head.bias - The value is the same before and after calling `init_weights` of EncoderDecoder  
2021-08-10 00:15:26,450 - mmseg - INFO - EncoderDecoder(
  (backbone): Deit(
    (patch_embed): PatchEmbed(
      (projection): Conv2d(3, 768, kernel_size=(16, 16), stride=(16, 16))
    )
    (drop_after_pos): Dropout(p=0.0, inplace=False)
    (layers): ModuleList(
      (0): TransformerEncoderLayer(
        (ln1): LayerNorm((768,), eps=1e-06, elementwise_affine=True)
        (attn): MultiheadAttention(
          (attn): MultiheadAttention(
            (out_proj): _LinearWithBias(in_features=768, out_features=768, bias=True)
          )
          (proj_drop): Dropout(p=0.0, inplace=False)
          (dropout_layer): DropPath()
        )
        (ln2): LayerNorm((768,), eps=1e-06, elementwise_affine=True)
        (ffn): FFN(
          (activate): GELU()
          (layers): Sequential(
            (0): Sequential(
              (0): Linear(in_features=768, out_features=3072, bias=True)
              (1): GELU()
              (2): Dropout(p=0.0, inplace=False)
            )
            (1): Linear(in_features=3072, out_features=768, bias=True)
            (2): Dropout(p=0.0, inplace=False)
          )
          (dropout_layer): DropPath()
        )
      )
      (1): TransformerEncoderLayer(
        (ln1): LayerNorm((768,), eps=1e-06, elementwise_affine=True)
        (attn): MultiheadAttention(
          (attn): MultiheadAttention(
            (out_proj): _LinearWithBias(in_features=768, out_features=768, bias=True)
          )
          (proj_drop): Dropout(p=0.0, inplace=False)
          (dropout_layer): DropPath()
        )
        (ln2): LayerNorm((768,), eps=1e-06, elementwise_affine=True)
        (ffn): FFN(
          (activate): GELU()
          (layers): Sequential(
            (0): Sequential(
              (0): Linear(in_features=768, out_features=3072, bias=True)
              (1): GELU()
              (2): Dropout(p=0.0, inplace=False)
            )
            (1): Linear(in_features=3072, out_features=768, bias=True)
            (2): Dropout(p=0.0, inplace=False)
          )
          (dropout_layer): DropPath()
        )
      )
      (2): TransformerEncoderLayer(
        (ln1): LayerNorm((768,), eps=1e-06, elementwise_affine=True)
        (attn): MultiheadAttention(
          (attn): MultiheadAttention(
            (out_proj): _LinearWithBias(in_features=768, out_features=768, bias=True)
          )
          (proj_drop): Dropout(p=0.0, inplace=False)
          (dropout_layer): DropPath()
        )
        (ln2): LayerNorm((768,), eps=1e-06, elementwise_affine=True)
        (ffn): FFN(
          (activate): GELU()
          (layers): Sequential(
            (0): Sequential(
              (0): Linear(in_features=768, out_features=3072, bias=True)
              (1): GELU()
              (2): Dropout(p=0.0, inplace=False)
            )
            (1): Linear(in_features=3072, out_features=768, bias=True)
            (2): Dropout(p=0.0, inplace=False)
          )
          (dropout_layer): DropPath()
        )
      )
      (3): TransformerEncoderLayer(
        (ln1): LayerNorm((768,), eps=1e-06, elementwise_affine=True)
        (attn): MultiheadAttention(
          (attn): MultiheadAttention(
            (out_proj): _LinearWithBias(in_features=768, out_features=768, bias=True)
          )
          (proj_drop): Dropout(p=0.0, inplace=False)
          (dropout_layer): DropPath()
        )
        (ln2): LayerNorm((768,), eps=1e-06, elementwise_affine=True)
        (ffn): FFN(
          (activate): GELU()
          (layers): Sequential(
            (0): Sequential(
              (0): Linear(in_features=768, out_features=3072, bias=True)
              (1): GELU()
              (2): Dropout(p=0.0, inplace=False)
            )
            (1): Linear(in_features=3072, out_features=768, bias=True)
            (2): Dropout(p=0.0, inplace=False)
          )
          (dropout_layer): DropPath()
        )
      )
      (4): TransformerEncoderLayer(
        (ln1): LayerNorm((768,), eps=1e-06, elementwise_affine=True)
        (attn): MultiheadAttention(
          (attn): MultiheadAttention(
            (out_proj): _LinearWithBias(in_features=768, out_features=768, bias=True)
          )
          (proj_drop): Dropout(p=0.0, inplace=False)
          (dropout_layer): DropPath()
        )
        (ln2): LayerNorm((768,), eps=1e-06, elementwise_affine=True)
        (ffn): FFN(
          (activate): GELU()
          (layers): Sequential(
            (0): Sequential(
              (0): Linear(in_features=768, out_features=3072, bias=True)
              (1): GELU()
              (2): Dropout(p=0.0, inplace=False)
            )
            (1): Linear(in_features=3072, out_features=768, bias=True)
            (2): Dropout(p=0.0, inplace=False)
          )
          (dropout_layer): DropPath()
        )
      )
      (5): TransformerEncoderLayer(
        (ln1): LayerNorm((768,), eps=1e-06, elementwise_affine=True)
        (attn): MultiheadAttention(
          (attn): MultiheadAttention(
            (out_proj): _LinearWithBias(in_features=768, out_features=768, bias=True)
          )
          (proj_drop): Dropout(p=0.0, inplace=False)
          (dropout_layer): DropPath()
        )
        (ln2): LayerNorm((768,), eps=1e-06, elementwise_affine=True)
        (ffn): FFN(
          (activate): GELU()
          (layers): Sequential(
            (0): Sequential(
              (0): Linear(in_features=768, out_features=3072, bias=True)
              (1): GELU()
              (2): Dropout(p=0.0, inplace=False)
            )
            (1): Linear(in_features=3072, out_features=768, bias=True)
            (2): Dropout(p=0.0, inplace=False)
          )
          (dropout_layer): DropPath()
        )
      )
      (6): TransformerEncoderLayer(
        (ln1): LayerNorm((768,), eps=1e-06, elementwise_affine=True)
        (attn): MultiheadAttention(
          (attn): MultiheadAttention(
            (out_proj): _LinearWithBias(in_features=768, out_features=768, bias=True)
          )
          (proj_drop): Dropout(p=0.0, inplace=False)
          (dropout_layer): DropPath()
        )
        (ln2): LayerNorm((768,), eps=1e-06, elementwise_affine=True)
        (ffn): FFN(
          (activate): GELU()
          (layers): Sequential(
            (0): Sequential(
              (0): Linear(in_features=768, out_features=3072, bias=True)
              (1): GELU()
              (2): Dropout(p=0.0, inplace=False)
            )
            (1): Linear(in_features=3072, out_features=768, bias=True)
            (2): Dropout(p=0.0, inplace=False)
          )
          (dropout_layer): DropPath()
        )
      )
      (7): TransformerEncoderLayer(
        (ln1): LayerNorm((768,), eps=1e-06, elementwise_affine=True)
        (attn): MultiheadAttention(
          (attn): MultiheadAttention(
            (out_proj): _LinearWithBias(in_features=768, out_features=768, bias=True)
          )
          (proj_drop): Dropout(p=0.0, inplace=False)
          (dropout_layer): DropPath()
        )
        (ln2): LayerNorm((768,), eps=1e-06, elementwise_affine=True)
        (ffn): FFN(
          (activate): GELU()
          (layers): Sequential(
            (0): Sequential(
              (0): Linear(in_features=768, out_features=3072, bias=True)
              (1): GELU()
              (2): Dropout(p=0.0, inplace=False)
            )
            (1): Linear(in_features=3072, out_features=768, bias=True)
            (2): Dropout(p=0.0, inplace=False)
          )
          (dropout_layer): DropPath()
        )
      )
      (8): TransformerEncoderLayer(
        (ln1): LayerNorm((768,), eps=1e-06, elementwise_affine=True)
        (attn): MultiheadAttention(
          (attn): MultiheadAttention(
            (out_proj): _LinearWithBias(in_features=768, out_features=768, bias=True)
          )
          (proj_drop): Dropout(p=0.0, inplace=False)
          (dropout_layer): DropPath()
        )
        (ln2): LayerNorm((768,), eps=1e-06, elementwise_affine=True)
        (ffn): FFN(
          (activate): GELU()
          (layers): Sequential(
            (0): Sequential(
              (0): Linear(in_features=768, out_features=3072, bias=True)
              (1): GELU()
              (2): Dropout(p=0.0, inplace=False)
            )
            (1): Linear(in_features=3072, out_features=768, bias=True)
            (2): Dropout(p=0.0, inplace=False)
          )
          (dropout_layer): DropPath()
        )
      )
      (9): TransformerEncoderLayer(
        (ln1): LayerNorm((768,), eps=1e-06, elementwise_affine=True)
        (attn): MultiheadAttention(
          (attn): MultiheadAttention(
            (out_proj): _LinearWithBias(in_features=768, out_features=768, bias=True)
          )
          (proj_drop): Dropout(p=0.0, inplace=False)
          (dropout_layer): DropPath()
        )
        (ln2): LayerNorm((768,), eps=1e-06, elementwise_affine=True)
        (ffn): FFN(
          (activate): GELU()
          (layers): Sequential(
            (0): Sequential(
              (0): Linear(in_features=768, out_features=3072, bias=True)
              (1): GELU()
              (2): Dropout(p=0.0, inplace=False)
            )
            (1): Linear(in_features=3072, out_features=768, bias=True)
            (2): Dropout(p=0.0, inplace=False)
          )
          (dropout_layer): DropPath()
        )
      )
      (10): TransformerEncoderLayer(
        (ln1): LayerNorm((768,), eps=1e-06, elementwise_affine=True)
        (attn): MultiheadAttention(
          (attn): MultiheadAttention(
            (out_proj): _LinearWithBias(in_features=768, out_features=768, bias=True)
          )
          (proj_drop): Dropout(p=0.0, inplace=False)
          (dropout_layer): DropPath()
        )
        (ln2): LayerNorm((768,), eps=1e-06, elementwise_affine=True)
        (ffn): FFN(
          (activate): GELU()
          (layers): Sequential(
            (0): Sequential(
              (0): Linear(in_features=768, out_features=3072, bias=True)
              (1): GELU()
              (2): Dropout(p=0.0, inplace=False)
            )
            (1): Linear(in_features=3072, out_features=768, bias=True)
            (2): Dropout(p=0.0, inplace=False)
          )
          (dropout_layer): DropPath()
        )
      )
      (11): TransformerEncoderLayer(
        (ln1): LayerNorm((768,), eps=1e-06, elementwise_affine=True)
        (attn): MultiheadAttention(
          (attn): MultiheadAttention(
            (out_proj): _LinearWithBias(in_features=768, out_features=768, bias=True)
          )
          (proj_drop): Dropout(p=0.0, inplace=False)
          (dropout_layer): DropPath()
        )
        (ln2): LayerNorm((768,), eps=1e-06, elementwise_affine=True)
        (ffn): FFN(
          (activate): GELU()
          (layers): Sequential(
            (0): Sequential(
              (0): Linear(in_features=768, out_features=3072, bias=True)
              (1): GELU()
              (2): Dropout(p=0.0, inplace=False)
            )
            (1): Linear(in_features=3072, out_features=768, bias=True)
            (2): Dropout(p=0.0, inplace=False)
          )
          (dropout_layer): DropPath()
        )
      )
    )
    (ln1): LayerNorm((768,), eps=1e-06, elementwise_affine=True)
  )
  (decode_head): MySegmenterHead_Linear(
    input_transform=None, ignore_index=255, align_corners=False
    (loss_decode): CrossEntropyLoss()
    (conv_seg): Conv2d(512, 150, kernel_size=(1, 1), stride=(1, 1))
    (head): Linear(in_features=768, out_features=150, bias=True)
  )
  init_cfg={'type': 'Normal', 'std': 0.01, 'override': {'name': 'conv_seg'}}
)
2021-08-10 00:15:26,912 - mmseg - INFO - Loaded 20210 images
2021-08-10 00:15:28,632 - mmseg - INFO - Loaded 2000 images
2021-08-10 00:15:28,632 - mmseg - INFO - Start running, host: pbliu@miracle-101, work_dir: /home1/pbliu/Project5_T/mmsegmentation-master/work_dirs/mysegmenter_Mydeit_Linear_512x512_160k_b8_ade20k
…
